…
不过由于 DeepMind 的 Flamingo 是不开源的，没有办法直接打印模型结构，所以这里我们选择 Christoph Schuhmann 团队开源 OpenFlamingo，通过下面这个代码可以打印一下它的模型结构。
from
open_flamingo
import
create_model_and_transforms
model
,
image_processor
,
tokenizer
=
create_model_and_transforms
(
clip_vision_encoder_path
=
"ViT-L-14"
,
clip_vision_encoder_pretrained
=
"openai"
,
lang_encoder_path
=
"anas-awadalla/mpt-1b-redpajama-200b"
,
tokenizer_path
=
"anas-awadalla/mpt-1b-redpajama-200b"
,
cross_attn_every_n_layers
=
1
,
)
print
(
model
)
Flamingo(
(vision_encoder): VisionTransformer(
......
)
(perceiver): PerceiverResampler(
(layers): ModuleList(
(0-5): 6 x ModuleList(
(0): PerceiverAttention(
(norm_media): LayerNorm((1024,), eps=1e-05, elementwise_affine=True)
(norm_latents): LayerNorm((1024,), eps=1e-05, elementwise_affine=True)
(to_q): Linear(in_features=1024, out_features=512, bias=False)
(to_kv): Linear(in_features=1024, out_features=1024, bias=False)
(to_out): Linear(in_features=512, out_features=1024, bias=False)
)
(1): Sequential(
(0): LayerNorm((1024,), eps=1e-05, elementwise_affine=True)
(1): Linear(in_features=1024, out_features=4096, bias=False)
(2): GELU(approximate='none')
(3): Linear(in_features=4096, out_features=1024, bias=False)
)
)
)
(norm): LayerNorm((1024,), eps=1e-05, elementwise_affine=True)
)
(lang_encoder): MosaicGPT(
......
(gated_cross_attn_layers): ModuleList(
(0-23): 24 x GatedCrossAttentionBlock(
(attn): MaskedCrossAttention(
(norm): LayerNorm((2048,), eps=1e-05, elementwise_affine=True)
(to_q): Linear(in_features=2048, out_features=512, bias=False)
(to_kv): Linear(in_features=1024, out_features=1024, bias=False)
(to_out): Linear(in_features=512, out_features=2048, bias=False)
)
(ff): Sequential(
(0): LayerNorm((2048,), eps=1e-05, elementwise_affine=True)
(1): Linear(in_features=2048, out_features=8192, bias=False)
(2): GELU(approximate='none')
(3): Linear(in_features=8192, out_features=2048, bias=False)
)
)
)
)
)
BLIP-2
BLIP-2 的论文中提出了一种新的视觉-语言模型预训练的方法—— Q-Former，主要分为两个阶段：① 基于冻结的图像编码器进行视觉-语言表征学习；② 基于冻结的 LLM 进行视觉-语言生成学习。Q-Former 是一个可训练的模块，通过 BERT Base 来初始化权重，用来连接冻结的图像编码器和冻结的 LLM。对于不同分辨率的图像，Q-Former 都可以通过图像编码器提取固定数量的输出特征。Q-Former 主要包括两个 Transformer 子模块，① 图像 Transformer 用于跟冻结的图像编码器交互，提取视觉特征；② 文本 Transformer 可以既作为文本编码器和文本解码器。
视觉-语言表征学习：创建了一批可学习的 query embeddings 作为图像 Transformer 的输入，queries 可以通过自注意力层跟自己或者文本进行交互，也可以通过交叉注意力层跟冻结的图像编码器提取的特征进行交互。
视觉-语言表征学习通过三种任务进行训练：
图文对比学习：对齐图像表征和文本表征。
图文匹配：判断图文对是否匹配的二分类任务。
基于图像的文本生成：基于图像生成标题。
视觉-语言生成学习：基于训练好的 Q-Former 模块和可学习的 query embeddings 提取图像特征，然后用全连接层将 Q-Former 的输出维度跟 LLM 的输入维度进行对齐，最后再输入到 LLM 中。
可以通过下面这段代码打印一下 BLIP-2 的模型结构。
import
torch
from
lavis
.
models
import
load_model_and_preprocess
device
=
torch
.
device
(
"cuda"
if
torch
.
cuda
.
is_available
(
)
else
"cpu"
)
model
,
vis_processors
,
_
=
load_model_and_preprocess
(
name
=
"blip2_opt"
,
model_type
=
"pretrain_opt2.7b"
,
is_eval
=
True
,
device
=
device
)
print
(
model
)
Blip2OPT(
(visual_encoder): VisionTransformer(
......
)
(ln_vision): LayerNorm((1408,), eps=1e-05, elementwise_affine=True)
(Qformer): BertLMHeadModel(
(bert): BertModel(
(embeddings): BertEmbeddings(
(word_embeddings): None
(position_embeddings): None
(LayerNorm): LayerNorm((768,), eps=1e-12, elementwise_affine=True)
(dropout): Dropout(p=0.1, inplace=False)
)
(encoder): BertEncoder(
(layer): ModuleList(
(0-11): 12 x: BertLayer(
(attention): BertAttention(
(self): BertSelfAttention(
(query): Linear(in_features=768, out_features=768, bias=True)
(key): Linear(in_features=768, out_features=768, bias=True)
(value): Linear(in_features=768, out_features=768, bias=True)
(dropout): Dropout(p=0.1, inplace=False)
)
(output): BertSelfOutput(
(dense): Linear(in_features=768, out_features=768, bias=True)
(LayerNorm): LayerNorm((768,), eps=1e-12, elementwise_affine=True)
(dropout): Dropout(p=0.1, inplace=False)
)
)
(crossattention): BertAttention(
(self): BertSelfAttention(
(query): Linear(in_features=768, out_features=768, bias=True)
(key): Linear(in_features=1408, out_features=768, bias=True)
(value): Linear(in_features=1408, out_features=768, bias=True)
(dropout): Dropout(p=0.1, inplace=False)
)
(output): BertSelfOutput(
(dense): Linear(in_features=768, out_features=768, bias=True)
(LayerNorm): LayerNorm((768,), eps=1e-12, elementwise_affine=True)
(dropout): Dropout(p=0.1, inplace=False)
)
)
(intermediate): None
(output): None
(intermediate_query): BertIntermediate(
(dense): Linear(in_features=768, out_features=3072, bias=True)
(intermediate_act_fn): GELUActivation()
)
(output_query): BertOutput(
(dense): Linear(in_features=3072, out_features=768, bias=True)
(LayerNorm): LayerNorm((768,), eps=1e-12, elementwise_affine=True)
(dropout): Dropout(p=0.1, inplace=False)
)
)
)
)
)
(cls): None
)
(opt_model): OPTForCausalLM(
......
)
(opt_proj): Linear(in_features=768, out_features=2560, bias=True)
)